…
=0, smoothing=0.0, train_interpolation='bicubic', elm_attention=True, infor_recoupling=True, num_classes=10, local_rank=None)
2023-07-25 17:07:50,541 Loading pretrained weights from url (https://github.com/rwightman/pytorch-image-models/releases/download/v0.1-weights/efficientnet_b0_ra-3dd342df.pth)
2023-07-25 17:07:50,731 Loading pretrained weights from url (https://github.com/rwightman/pytorch-image-models/releases/download/v0.1-weights/efficientnet_b2_ra-bcdf34b7.pth)
2023-07-25 17:07:51,142 student:
2023-07-25 17:07:51,142 BNext(
  (feature): ModuleList(
    (0): firstconv3x3(
      (conv1): Conv2d(3, 32, kernel_size=(3, 3), stride=(1, 1), padding=(1, 1), bias=False)
      (bn1): BatchNorm2d(32, eps=1e-05, momentum=0.1, affine=True, track_running_stats=True)
      (prelu): PReLU(num_parameters=32)
    )
    (1): BasicBlock(
      (Attention): FFN_3x3(
        (move): LearnableBias()
        (binary_activation): HardSign()
        (binary_conv): HardBinaryConv()
        (norm1): BatchNorm2d(32, eps=1e-05, momentum=0.1, affine=True, track_running_stats=True)
        (norm2): BatchNorm2d(32, eps=1e-05, momentum=0.1, affine=True, track_running_stats=True)
        (activation1): PReLU(num_parameters=32)
        (activation2): PReLU(num_parameters=32)
        (se): SqueezeAndExpand(
          (se): Sequential(
            (0): AdaptiveAvgPool2d(output_size=(1, 1))
            (1): Conv2d(32, 4, kernel_size=(1, 1), stride=(1, 1))
            (2): ReLU(inplace=True)
            (3): Conv2d(4, 32, kernel_size=(1, 1), stride=(1, 1))
          )
          (attention): Sigmoid()
        )
      )
      (FFN_1): FFN_1x1(
        (move): LearnableBias()
        (binary_activation): HardSign()
        (binary_conv): HardBinaryConv()
        (norm1): BatchNorm2d(32, eps=1e-05, momentum=0.1, affine=True, track_running_stats=True)
        (norm2): BatchNorm2d(32, eps=1e-05, momentum=0.1, affine=True, track_running_stats=True)
        (activation1): PReLU(num_parameters=32)
        (activation2): PReLU(num_parameters=32)
        (se): SqueezeAndExpand(
          (se): Sequential(
            (0): AdaptiveAvgPool2d(output_size=(1, 1))
            (1): Conv2d(32, 4, kernel_size=(1, 1), stride=(1, 1))
            (2): ReLU(inplace=True)
            (3): Conv2d(4, 32, kernel_size=(1, 1), stride=(1, 1))
          )
          (attention): Sigmoid()
        )
      )
      (FFN_2): FFN_1x1(
        (move): LearnableBias()
        (binary_activation): HardSign()
        (binary_conv): HardBinaryConv()
        (norm1): BatchNorm2d(32, eps=1e-05, momentum=0.1, affine=True, track_running_stats=True)
        (norm2): BatchNorm2d(32, eps=1e-05, momentum=0.1, affine=True, track_running_stats=True)
        (activation1): PReLU(num_parameters=32)
        (activation2): PReLU(num_parameters=32)
        (se): SqueezeAndExpand(
          (se): Sequential(
            (0): AdaptiveAvgPool2d(output_size=(1, 1))
            (1): Conv2d(32, 4, kernel_size=(1, 1), stride=(1, 1))
            (2): ReLU(inplace=True)
            (3): Conv2d(4, 32, kernel_size=(1, 1), stride=(1, 1))
          )
          (attention): Sigmoid()
        )
      )
    )
    (2): BasicBlock(
      (Attention): Attention(
        (move): LearnableBias()
        (binary_activation): HardSign()
        (binary_conv): HardBinaryConv()
        (norm1): BatchNorm2d(64, eps=1e-05, momentum=0.1, affine=True, track_running_stats=True)
        (norm2): BatchNorm2d(64, eps=1e-05, momentum=0.1, affine=True, track_running_stats=True)
        (activation1): PReLU(num_parameters=64)
        (activation2): PReLU(num_parameters=64)
        (pooling): AvgPool2d(kernel_size=2, stride=2, padding=0)
        (se): SqueezeAndExpand(
          (se): Sequential(
            (0): AdaptiveAvgPool2d(output_size=(1, 1))
            (1): Conv2d(64, 8, kernel_size=(1, 1), stride=(1, 1))
            (2): ReLU(inplace=True)
            (3): Conv2d(8, 64, kernel_size=(1, 1), stride=(1, 1))
          )
          (attention): Sigmoid()
        )
      )
      (FFN_1): FFN_1x1(
        (move): LearnableBias()
        (binary_activation): HardSign()
        (binary_conv): HardBinaryConv()
        (norm1): BatchNorm2d(64, eps=1e-05, momentum=0.1, affine=True, track_running_stats=True)
        (norm2): BatchNorm2d(64, eps=1e-05, momentum=0.1, affine=True, track_running_stats=True)
        (activation1): PReLU(num_parameters=64)
        (activation2): PReLU(num_parameters=64)
        (se): SqueezeAndExpand(
          (se): Sequential(
            (0): AdaptiveAvgPool2d(output_size=(1, 1))
            (1): Conv2d(64, 8, kernel_size=(1, 1), stride=(1, 1))
            (2): ReLU(inplace=True)
            (3): Conv2d(8, 64, kernel_size=(1, 1), stride=(1, 1))
          )
          (attention): Sigmoid()
        )
      )
      (FFN_2): FFN_1x1(
        (move): LearnableBias()
        (binary_activation): HardSign()
        (binary_conv): HardBinaryConv()
        (norm1): BatchNorm2d(64, eps=1e-05, momentum=0.1, affine=True, track_running_stats=True)
        (norm2): BatchNorm2d(64, eps=1e-05, momentum=0.1, affine=True, track_running_stats=True)
        (activation1): PReLU(num_parameters=64)
        (activation2): PReLU(num_parameters=64)
        (se): SqueezeAndExpand(
          (se): Sequential(
            (0): AdaptiveAvgPool2d(output_size=(1, 1))
            (1): Conv2d(64, 8, kernel_size=(1, 1), stride=(1, 1))
            (2): ReLU(inplace=True)
            (3): Conv2d(8, 64, kernel_size=(1, 1), stride=(1, 1))
          )
          (attention): Sigmoid()
        )
      )
    )
    (3): BasicBlock(
      (Attention): FFN_3x3(
        (move): LearnableBias()
        (binary_activation): HardSign()
        (binary_conv): HardBinaryConv()
        (norm1): BatchNorm2d(128, eps=1e-05, momentum=0.1, affine=True, track_running_stats=True)
        (norm2): BatchNorm2d(128, eps=1e-05, momentum=0.1, affine=True, track_running_stats=True)
        (activation1): PReLU(num_parameters=128)
        (activation2): PReLU(num_parameters=128)
        (se): SqueezeAndExpand(
          (se): Sequential(
            (0): AdaptiveAvgPool2d(output_size=(1, 1))
            (1): Conv2d(128, 16, kernel_size=(1, 1), stride=(1, 1))
            (2): ReLU(inplace=True)
            (3): Conv2d(16, 128, kernel_size=(1, 1), stride=(1, 1))
          )
          (attention): Sigmoid()
        )
      )
      (FFN): FFN_1x1(
        (move): LearnableBias()
        (binary_activation): HardSign()
        (binary_conv): HardBinaryConv()
        (norm1): BatchNorm2d(128, eps=1e-05, momentum=0.1, affine=True, track_running_stats=True)
        (norm2): BatchNorm2d(128, eps=1e-05, momentum=0.1, affine=True, track_running_stats=True)
        (activation1): PReLU(num_parameters=128)
        (activation2): PReLU(num_parameters=128)
        (se): SqueezeAndExpand(
          (se): Sequential(
            (0): AdaptiveAvgPool2d(output_size=(1, 1))
            (1): Conv2d(128, 16, kernel_size=(1, 1), stride=(1, 1))
            (2): ReLU(inplace=True)
            (3): Conv2d(16, 128, kernel_size=(1, 1), stride=(1, 1))
          )
          (attention): Sigmoid()
        )
      )
    )
    (4): BasicBlock(
      (Attention): Attention(
        (move): LearnableBias()
        (binary_activation): HardSign()
        (binary_conv): HardBinaryConv()
        (norm1): BatchNorm2d(128, eps=1e-05, momentum=0.1, affine=True, track_running_stats=True)
        (norm2): BatchNorm2d(128, eps=1e-05, momentum=0.1, affine=True, track_running_stats=True)
        (activation1): PReLU(num_parameters=128)
        (activation2): PReLU(num_parameters=128)
        (pooling): AvgPool2d(kernel_size=2, stride=2, padding=0)
        (se): SqueezeAndExpand(
          (se): Sequential(
            (0): AdaptiveAvgPool2d(output_size=(1, 1))
            (1): Conv2d(128, 16, kernel_size=(1, 1), stride=(1, 1))
            (2): ReLU(inplace=True)
            (3): Conv2d(16, 128, kernel_size=(1, 1), stride=(1, 1))
          )
          (attention): Sigmoid()
        )
      )
      (FFN_1): FFN_1x1(
        (move): LearnableBias()
        (binary_activation): HardSign()
        (binary_conv): HardBinaryConv()
        (norm1): BatchNorm2d(128, eps=1e-05, momentum=0.1, affine=True, track_running_stats=True)
        (norm2): BatchNorm2d(128, eps=1e-05, momentum=0.1, affine=True, track_running_stats=True)
        (activation1): PReLU(num_parameters=128)
        (activation2): PReLU(num_parameters=128)
        (se): SqueezeAndExpand(
          (se): Sequential(
            (0): AdaptiveAvgPool2d(output_size=(1, 1))
            (1): Conv2d(128, 16, kernel_size=(1, 1), stride=(1, 1))
            (2): ReLU(inplace=True)
            (3): Conv2d(16, 128, kernel_size=(1, 1), stride=(1, 1))
          )
          (attention): Sigmoid()
        )
      )
      (FFN_2): FFN_1x1(
        (move): LearnableBias()
        (binary_activation): HardSign()
        (binary_conv): HardBinaryConv()
        (norm1): BatchNorm2d(128, eps=1e-05, momentum=0.1, affine=True, track_running_stats=True)
        (norm2): BatchNorm2d(128, eps=1e-05, momentum=0.1, affine=True, track_running_stats=True)
        (activation1): PReLU(num_parameters=128)
        (activation2): PReLU(num_parameters=128)
        (se): SqueezeAndExpand(
          (se): Sequential(
            (0): AdaptiveAvgPool2d(output_size=(1, 1))
            (1): Conv2d(128, 16, kernel_size=(1, 1), stride=(1, 1))
            (2): ReLU(inplace=True)
            (3): Conv2d(16, 128, kernel_size=(1, 1), stride=(1, 1))
          )
          (attention): Sigmoid()
        )
      )
    )
    (5): BasicBlock(
      (Attention): FFN_3x3(
        (move): LearnableBias()
        (binary_activation): HardSign()
        (binary_conv): HardBinaryConv()
        (norm1): BatchNorm2d(256, eps=1e-05, momentum=0.1, affine=True, track_running_stats=True)
        (norm2): BatchNorm2d(256, eps=1e-05, momentum=0.1, affine=True, track_running_stats=True)
        (activation1): PReLU(num_parameters=256)
        (activation2): PReLU(num_parameters=256)
        (se): SqueezeAndExpand(
          (se): Sequential(
            (0): AdaptiveAvgPool2d(output_size=(1, 1))
            (1): Conv2d(256, 32, kernel_size=(1, 1), stride=(1, 1))
            (2): ReLU(inplace=True)
            (3): Conv2d(32, 256, kernel_size=(1, 1), stride=(1, 1))
          )
          (attention): Sigmoid()
        )
      )
      (FFN): FFN_1x1(
        (move): LearnableBias()
        (binary_activation): HardSign()
        (binary_conv): HardBinaryConv()
        (norm1): BatchNorm2d(256, eps=1e-05, momentum=0.1, affine=True, track_running_stats=True)
        (norm2): BatchNorm2d(256, eps=1e-05, momentum=0.1, affine=True, track_running_stats=True)
        (activation1): PReLU(num_parameters=256)
        (activation2): PReLU(num_parameters=256)
        (se): SqueezeAndExpand(
          (se): Sequential(
            (0): AdaptiveAvgPool2d(output_size=(1, 1))
            (1): Conv2d(256, 32, kernel_size=(1, 1), stride=(1, 1))
            (2): ReLU(inplace=True)
            (3): Conv2d(32, 256, kernel_size=(1, 1), stride=(1, 1))
          )
          (attention): Sigmoid()
        )
      )
    )
    (6): BasicBlock(
      (Attention): Attention(
        (move): LearnableBias()
        (binary_activation): HardSign()
        (binary_conv): HardBinaryConv()
        (norm1): BatchNorm2d(256, eps=1e-05, momentum=0.1, affine=True, track_running_stats=True)
        (norm2): BatchNorm2d(256, eps=1e-05, momentum=0.1, affine=True, track_running_stats=True)
        (activation1): PReLU(num_parameters=256)
        (activation2): PReLU(num_parameters=256)
        (pooling): AvgPool2d(kernel_size=2, stride=2, padding=0)
        (se): SqueezeAndExpand(
          (se): Sequential(
            (0): AdaptiveAvgPool2d(output_size=(1, 1))
            (1): Conv2d(256, 32, kernel_size=(1, 1), stride=(1, 1))
            (2): ReLU(inplace=True)
            (3): Conv2d(32, 256, kernel_size=(1, 1), stride=(1, 1))
          )
          (attention): Sigmoid()
        )
      )
      (FFN_1): FFN_1x1(
        (move): LearnableBias()
        (binary_activation): HardSign()
        (binary_conv): HardBinaryConv()
        (norm1): BatchNorm2d(256, eps=1e-05, momentum=0.1, affine=True, track_running_stats=True)
        (norm2): BatchNorm2d(256, eps=1e-05, momentum=0.1, affine=True, track_running_stats=True)
        (activation1): PReLU(num_parameters=256)
        (activation2): PReLU(num_parameters=256)
        (se): SqueezeAndExpand(
          (se): Sequential(
            (0): AdaptiveAvgPool2d(output_size=(1, 1))
            (1): Conv2d(256, 32, kernel_size=(1, 1), stride=(1, 1))
            (2): ReLU(inplace=True)
            (3): Conv2d(32, 256, kernel_size=(1, 1), stride=(1, 1))
          )
          (attention): Sigmoid()
        )
      )
      (FFN_2): FFN_1x1(
        (move): LearnableBias()
        (binary_activation): HardSign()
        (binary_conv): HardBinaryConv()
        (norm1): BatchNorm2d(256, eps=1e-05, momentum=0.1, affine=True, track_running_stats=True)
        (norm2): BatchNorm2d(256, eps=1e-05, momentum=0.1, affine=True, track_running_stats=True)
        (activation1): PReLU(num_parameters=256)
        (activation2): PReLU(num_parameters=256)
        (se): SqueezeAndExpand(
          (se): Sequential(
            (0): AdaptiveAvgPool2d(output_size=(1, 1))
            (1): Conv2d(256, 32, kernel_size=(1, 1), stride=(1, 1))
            (2): ReLU(inplace=True)
            (3): Conv2d(32, 256, kernel_size=(1, 1), stride=(1, 1))
          )
          (attention): Sigmoid()
        )
      )
    )
    (7): BasicBlock(
      (Attention): FFN_3x3(
        (move): LearnableBias()
        (binary_activation): HardSign()
        (binary_conv): HardBinaryConv()
        (norm1): BatchNorm2d(512, eps=1e-05, momentum=0.1, affine=True, track_running_stats=True)
        (norm2): BatchNorm2d(512, eps=1e-05, momentum=0.1, affine=True, track_running_stats=True)
        (activation1): PReLU(num_parameters=512)
        (activation2): PReLU(num_parameters=512)
        (se): SqueezeAndExpand(
          (se): Sequential(
            (0): AdaptiveAvgPool2d(output_size=(1, 1))
            (1): Conv2d(512, 64, kernel_size=(1, 1), stride=(1, 1))
            (2): ReLU(inplace=True)
            (3): Conv2d(64, 512, kernel_size=(1, 1), stride=(1, 1))
          )
          (attention): Sigmoid()
        )
      )
      (FFN): FFN_1x1(
        (move): LearnableBias()
        (binary_activation): HardSign()
        (binary_conv): HardBinaryConv()
        (norm1): BatchNorm2d(512, eps=1e-05, momentum=0.1, affine=True, track_running_stats=True)
        (norm2): BatchNorm2d(512, eps=1e-05, momentum=0.1, affine=True, track_running_stats=True)
        (activation1): PReLU(num_parameters=512)
        (activation2): PReLU(num_parameters=512)
        (se): SqueezeAndExpand(
          (se): Sequential(
            (0): AdaptiveAvgPool2d(output_size=(1, 1))
            (1): Conv2d(512, 64, kernel_size=(1, 1), stride=(1, 1))
            (2): ReLU(inplace=True)
            (3): Conv2d(64, 512, kernel_size=(1, 1), stride=(1, 1))
          )
          (attention): Sigmoid()
        )
      )
    )
    (8): BasicBlock(
      (Attention): Attention(
        (move): LearnableBias()
        (binary_activation): HardSign()
        (binary_conv): HardBinaryConv()
        (norm1): BatchNorm2d(512, eps=1e-05, momentum=0.1, affine=True, track_running_stats=True)
        (norm2): BatchNorm2d(512, eps=1e-05, momentum=0.1, affine=True, track_running_stats=True)
        (activation1): PReLU(num_parameters=512)
        (activation2): PReLU(num_parameters=512)
        (se): SqueezeAndExpand(
          (se): Sequential(
            (0): AdaptiveAvgPool2d(output_size=(1, 1))
            (1): Conv2d(512, 64, kernel_size=(1, 1), stride=(1, 1))
            (2): ReLU(inplace=True)
            (3): Conv2d(64, 512, kernel_size=(1, 1), stride=(1, 1))
          )
          (attention): Sigmoid()
        )
      )
      (FFN): FFN_1x1(
        (move): LearnableBias()
        (binary_activation): HardSign()
        (binary_conv): HardBinaryConv()
        (norm1): BatchNorm2d(512, eps=1e-05, momentum=0.1, affine=True, track_running_stats=True)
        (norm2): BatchNorm2d(512, eps=1e-05, momentum=0.1, affine=True, track_running_stats=True)
        (activation1): PReLU(num_parameters=512)
        (activation2): PReLU(num_parameters=512)
        (se): SqueezeAndExpand(
          (se): Sequential(
            (0): AdaptiveAvgPool2d(output_size=(1, 1))
            (1): Conv2d(512, 64, kernel_size=(1, 1), stride=(1, 1))
            (2): ReLU(inplace=True)
            (3): Conv2d(64, 512, kernel_size=(1, 1), stride=(1, 1))
          )
          (attention): Sigmoid()
        )
      )
    )
    (9): BasicBlock(
      (Attention): FFN_3x3(
        (move): LearnableBias()
        (binary_activation): HardSign()
        (binary_conv): HardBinaryConv()
        (norm1): BatchNorm2d(512, eps=1e-05, momentum=0.1, affine=True, track_running_stats=True)
        (norm2): BatchNorm2d(512, eps=1e-05, momentum=0.1, affine=True, track_running_stats=True)
        (activation1): PReLU(num_parameters=512)
        (activation2): PReLU(num_parameters=512)
        (se): SqueezeAndExpand(
          (se): Sequential(
            (0): AdaptiveAvgPool2d(output_size=(1, 1))
            (1): Conv2d(512, 64, kernel_size=(1, 1), stride=(1, 1))
            (2): ReLU(inplace=True)
            (3): Conv2d(64, 512, kernel_size=(1, 1), stride=(1, 1))
          )
          (attention): Sigmoid()
        )
      )
      (FFN): FFN_1x1(
        (move): LearnableBias()
        (binary_activation): HardSign()
        (binary_conv): HardBinaryConv()
        (norm1): BatchNorm2d(512, eps=1e-05, momentum=0.1, affine=True, track_running_stats=True)
        (norm2): BatchNorm2d(512, eps=1e-05, momentum=0.1, affine=True, track_running_stats=True)
        (activation1): PReLU(num_parameters=512)
        (activation2): PReLU(num_parameters=512)
        (se): SqueezeAndExpand(
          (se): Sequential(
            (0): AdaptiveAvgPool2d(output_size=(1, 1))
            (1): Conv2d(512, 64, kernel_size=(1, 1), stride=(1, 1))
            (2): ReLU(inplace=True)
            (3): Conv2d(64, 512, kernel_size=(1, 1), stride=(1, 1))
          )
          (attention): Sigmoid()
        )
      )
    )
    (10): BasicBlock(
      (Attention): Attention(
        (move): LearnableBias()
        (binary_activation): HardSign()
        (binary_conv): HardBinaryConv()
        (norm1): BatchNorm2d(512, eps=1e-05, momentum=0.1, affine=True, track_running_stats=True)
        (norm2): BatchNorm2d(512, eps=1e-05, momentum=0.1, affine=True, track_running_stats=True)
        (activation1): PReLU(num_parameters=512)
        (activation2): PReLU(num_parameters=512)
        (se): SqueezeAndExpand(
          (se): Sequential(
            (0): AdaptiveAvgPool2d(output_size=(1, 1))
            (1): Conv2d(512, 64, kernel_size=(1, 1), stride=(1, 1))
            (2): ReLU(inplace=True)
            (3): Conv2d(64, 512, kernel_size=(1, 1), stride=(1, 1))
          )
          (attention): Sigmoid()
        )
      )
      (FFN): FFN_1x1(
        (move): LearnableBias()
        (binary_activation): HardSign()
        (binary_conv): HardBinaryConv()
        (norm1): BatchNorm2d(512, eps=1e-05, momentum=0.1, affine=True, track_running_stats=True)
        (norm2): BatchNorm2d(512, eps=1e-05, momentum=0.1, affine=True, track_running_stats=True)
        (activation1): PReLU(num_parameters=512)
        (activation2): PReLU(num_parameters=512)
        (se): SqueezeAndExpand(
          (se): Sequential(
            (0): AdaptiveAvgPool2d(output_size=(1, 1))
            (1): Conv2d(512, 64, kernel_size=(1, 1), stride=(1, 1))
            (2): ReLU(inplace=True)
            (3): Conv2d(64, 512, kernel_size=(1, 1), stride=(1, 1))
          )
          (attention): Sigmoid()
        )
      )
    )
    (11): BasicBlock(
      (Attention): FFN_3x3(
        (move): LearnableBias()
        (binary_activation): HardSign()
        (binary_conv): HardBinaryConv()
        (norm1): BatchNorm2d(512, eps=1e-05, momentum=0.1, affine=True, track_running_stats=True)
        (norm2): BatchNorm2d(512, eps=1e-05, momentum=0.1, affine=True, track_running_stats=True)
        (activation1): PReLU(num_parameters=512)
        (activation2): PReLU(num_parameters=512)
        (se): SqueezeAndExpand(
          (se): Sequential(
            (0): AdaptiveAvgPool2d(output_size=(1, 1))
            (1): Conv2d(512, 64, kernel_size=(1, 1), stride=(1, 1))
            (2): ReLU(inplace=True)
            (3): Conv2d(64, 512, kernel_size=(1, 1), stride=(1, 1))
          )
          (attention): Sigmoid()
        )
      )
      (FFN): FFN_1x1(
        (move): LearnableBias()
        (binary_activation): HardSign()
        (binary_conv): HardBinaryConv()
        (norm1): BatchNorm2d(512, eps=1e-05, momentum=0.1, affine=True, track_running_stats=True)
        (norm2): BatchNorm2d(512, eps=1e-05, momentum=0.1, affine=True, track_running_stats=True)
        (activation1): PReLU(num_parameters=512)
        (activation2): PReLU(num_parameters=512)
        (se): SqueezeAndExpand(
          (se): Sequential(
            (0): AdaptiveAvgPool2d(output_size=(1, 1))
            (1): Conv2d(512, 64, kernel_size=(1, 1), stride=(1, 1))
            (2): ReLU(inplace=True)
            (3): Conv2d(64, 512, kernel_size=(1, 1), stride=(1, 1))
          )
          (attention): Sigmoid()
        )
      )
    )
    (12): BasicBlock(
      (Attention): Attention(
        (move): LearnableBias()
        (binary_activation): HardSign()
        (binary_conv): HardBinaryConv()
        (norm1): BatchNorm2d(512, eps=1e-05, momentum=0.1, affine=True, track_running_stats=True)
        (norm2): BatchNorm2d(512, eps=1e-05, momentum=0.1, affine=True, track_running_stats=True)
        (activation1): PReLU(num_parameters=512)
        (activation2): PReLU(num_parameters=512)
        (pooling): AvgPool2d(kernel_size=2, stride=2, padding=0)
        (se): SqueezeAndExpand(
          (se): Sequential(
            (0): AdaptiveAvgPool2d(output_size=(1, 1))
            (1): Conv2d(512, 64, kernel_size=(1, 1), stride=(1, 1))
            (2): ReLU(inplace=True)
            (3): Conv2d(64, 512, kernel_size=(1, 1), stride=(1, 1))
          )
          (attention): Sigmoid()
        )
      )
      (FFN_1): FFN_1x1(
        (move): LearnableBias()
        (binary_activation): HardSign()
        (binary_conv): HardBinaryConv()
        (norm1): BatchNorm2d(512, eps=1e-05, momentum=0.1, affine=True, track_running_stats=True)
        (norm2): BatchNorm2d(512, eps=1e-05, momentum=0.1, affine=True, track_running_stats=True)
        (activation1): PReLU(num_parameters=512)
        (activation2): PReLU(num_parameters=512)
        (se): SqueezeAndExpand(
          (se): Sequential(
            (0): AdaptiveAvgPool2d(output_size=(1, 1))
            (1): Conv2d(512, 64, kernel_size=(1, 1), stride=(1, 1))
            (2): ReLU(inplace=True)
            (3): Conv2d(64, 512, kernel_size=(1, 1), stride=(1, 1))
          )
          (attention): Sigmoid()
        )
      )
      (FFN_2): FFN_1x1(
        (move): LearnableBias()
        (binary_activation): HardSign()
        (binary_conv): HardBinaryConv()
        (norm1): BatchNorm2d(512, eps=1e-05, momentum=0.1, affine=True, track_running_stats=True)
        (norm2): BatchNorm2d(512, eps=1e-05, momentum=0.1, affine=True, track_running_stats=True)
        (activation1): PReLU(num_parameters=512)
        (activation2): PReLU(num_parameters=512)
        (se): SqueezeAndExpand(
          (se): Sequential(
            (0): AdaptiveAvgPool2d(output_size=(1, 1))
            (1): Conv2d(512, 64, kernel_size=(1, 1), stride=(1, 1))
            (2): ReLU(inplace=True)
            (3): Conv2d(64, 512, kernel_size=(1, 1), stride=(1, 1))
          )
          (attention): Sigmoid()
        )
      )
    )
    (13): BasicBlock(
      (Attention): FFN_3x3(
        (move): LearnableBias()
        (binary_activation): HardSign()
        (binary_conv): HardBinaryConv()
        (norm1): BatchNorm2d(1024, eps=1e-05, momentum=0.1, affine=True, track_running_stats=True)
        (norm2): BatchNorm2d(1024, eps=1e-05, momentum=0.1, affine=True, track_running_stats=True)
        (activation1): PReLU(num_parameters=1024)
        (activation2): PReLU(num_parameters=1024)
        (se): SqueezeAndExpand(
          (se): Sequential(
            (0): AdaptiveAvgPool2d(output_size=(1, 1))
            (1): Conv2d(1024, 128, kernel_size=(1, 1), stride=(1, 1))
            (2): ReLU(inplace=True)
            (3): Conv2d(128, 1024, kernel_size=(1, 1), stride=(1, 1))
          )
          (attention): Sigmoid()
        )
      )
      (FFN): FFN_1x1(
        (move): LearnableBias()
        (binary_activation): HardSign()
        (binary_conv): HardBinaryConv()
        (norm1): BatchNorm2d(1024, eps=1e-05, momentum=0.1, affine=True, track_running_stats=True)
        (norm2): BatchNorm2d(1024, eps=1e-05, momentum=0.1, affine=True, track_running_stats=True)
        (activation1): PReLU(num_parameters=1024)
        (activation2): PReLU(num_parameters=1024)
        (se): SqueezeAndExpand(
          (se): Sequential(
            (0): AdaptiveAvgPool2d(output_size=(1, 1))
            (1): Conv2d(1024, 128, kernel_size=(1, 1), stride=(1, 1))
            (2): ReLU(inplace=True)
            (3): Conv2d(128, 1024, kernel_size=(1, 1), stride=(1, 1))
          )
          (attention): Sigmoid()
        )
      )
    )
  )
  (prelu): PReLU(num_parameters=1024)
  (pool1): AdaptiveAvgPool2d(output_size=1)
  (fc): Linear(in_features=1024, out_features=10, bias=True)
)
2023-07-25 17:08:25,479 args = Namespace(model='bnext_tiny', batch_size=512, epochs=512, optimizer='AdamW', learning_rate=0.001, momentum=0.9, weight_decay=0.0, save='models/CIFAR100', data=None, label_smooth=0.1, teacher='resnext101_32x8d', teacher_num=2, assistant_teacher_num=1, workers=32, dataset='CIFAR10', seed=None, gpu=None, weak_teacher='Effi
…
